…
500000 examples has been loaded!
600000 examples has been loaded!
700000 examples has been loaded!
800000 examples has been loaded!
900000 examples has been loaded!
total train examples 961577
./resources\bert-post-uncased
./resources\bert-post-uncased\bert-post-uncased-vocab.txt

       # -------------------------------------------------------------------------
       #   DATALOADER FINISHED
       # -------------------------------------------------------------------------
       
	* Building model...
BERTbase(
  (_bert_model): BertModel(
    (embeddings): BertEmbeddings(
      (word_embeddings): Embedding(30523, 768, padding_idx=0)
      (position_embeddings): Embedding(512, 768)
      (token_type_embeddings): Embedding(2, 768)
      (LayerNorm): LayerNorm((768,), eps=1e-12, elementwise_affine=True)
      (dropout): Dropout(p=0.1, inplace=False)
    )
    (encoder): BertEncoder(
      (layer): ModuleList(
        (0-11): 12 x BertLayer(
          (attention): BertAttention(
            (self): BertSelfAttention(
              (query): Linear(in_features=768, out_features=768, bias=True)
              (key): Linear(in_features=768, out_features=768, bias=True)
              (value): Linear(in_features=768, out_features=768, bias=True)
              (dropout): Dropout(p=0.1, inplace=False)
            )
            (output): BertSelfOutput(
              (dense): Linear(in_features=768, out_features=768, bias=True)
              (LayerNorm): LayerNorm((768,), eps=1e-12, elementwise_affine=True)
              (dropout): Dropout(p=0.1, inplace=False)
            )
          )
          (intermediate): BertIntermediate(
            (dense): Linear(in_features=768, out_features=3072, bias=True)
          )
          (output): BertOutput(
            (dense): Linear(in_features=3072, out_features=768, bias=True)
            (LayerNorm): LayerNorm((768,), eps=1e-12, elementwise_affine=True)
            (dropout): Dropout(p=0.1, inplace=False)
          )
        )
      )
    )
    (pooler): BertPooler(
      (dense): Linear(in_features=768, out_features=768, bias=True)
      (activation): Tanh()
    )
  )
  (_classification): Sequential(
    (0): Dropout(p=0.19999999999999996, inplace=False)
    (1): Linear(in_features=768, out_features=1, bias=True)
  )
)
iterations 1252
train_dataset 961577
hparams.virtual_batch_size 768
self.hparams.load_pthpath:  

      # -------------------------------------------------------------------------
      #   Setup Training Finished
      # -------------------------------------------------------------------------
      
Evaluation Split : test
100000 examples has been loaded!
…
